docs/notebooks/examples/time_series/har/kuhar_daghar/gan_dict.pth (torch, 679113 bytes, 108 tensors)

pos_embed f4 [1, 60, 10]
0	0x00000000	0.0
1	0x00000000	0.0
2	0x00000000	0.0
3	0x00000000	0.0
4	0x00000000	0.0
5	0x00000000	0.0
6	0x00000000	0.0
7	0x00000000	0.0
8	0x00000000	0.0
9	0x00000000	0.0
10	0x00000000	0.0
11	0x00000000	0.0
12	0x00000000	0.0
13	0x00000000	0.0
14	0x00000000	0.0
15	0x00000000	0.0
16	0x00000000	0.0
17	0x00000000	0.0
18	0x00000000	0.0
19	0x00000000	0.0
20	0x00000000	0.0
21	0x00000000	0.0
22	0x00000000	0.0
23	0x00000000	0.0
24	0x00000000	0.0
25	0x00000000	0.0
26	0x00000000	0.0
27	0x00000000	0.0
28	0x00000000	0.0
29	0x00000000	0.0
30	0x00000000	0.0
31	0x00000000	0.0
32	0x00000000	0.0
33	0x00000000	0.0
34	0x00000000	0.0
35	0x00000000	0.0
36	0x00000000	0.0
37	0x00000000	0.0
38	0x00000000	0.0
39	0x00000000	0.0
40	0x00000000	0.0
41	0x00000000	0.0
42	0x00000000	0.0
43	0x00000000	0.0
44	0x00000000	0.0
45	0x00000000	0.0
46	0x00000000	0.0
47	0x00000000	0.0
48	0x00000000	0.0
49	0x00000000	0.0
50	0x00000000	0.0
51	0x00000000	0.0
52	0x00000000	0.0
53	0x00000000	0.0
54	0x00000000	0.0
55	0x00000000	0.0
56	0x00000000	0.0
57	0x00000000	0.0
58	0x00000000	0.0
59	0x00000000	0.0
60	0x00000000	0.0
61	0x00000000	0.0
62	0x00000000	0.0
63	0x00000000	0.0
64	0x00000000	0.0
65	0x00000000	0.0
66	0x00000000	0.0
67	0x00000000	0.0
68	0x00000000	0.0
69	0x00000000	0.0
70	0x00000000	0.0
71	0x00000000	0.0
72	0x00000000	0.0
73	0x00000000	0.0
74	0x00000000	0.0
75	0x00000000	0.0
76	0x00000000	0.0
77	0x00000000	0.0
78	0x00000000	0.0
79	0x00000000	0.0
80	0x00000000	0.0
81	0x00000000	0.0
82	0x00000000	0.0
83	0x00000000	0.0
84	0x00000000	0.0
85	0x00000000	0.0
86	0x00000000	0.0
87	0x00000000	0.0
88	0x00000000	0.0
89	0x00000000	0.0
90	0x00000000	0.0
91	0x00000000	0.0
92	0x00000000	0.0
93	0x00000000	0.0
94	0x00000000	0.0
95	0x00000000	0.0
96	0x00000000	0.0
97	0x00000000	0.0
98	0x00000000	0.0
99	0x00000000	0.0
100	0x00000000	0.0
101	0x00000000	0.0
102	0x00000000	0.0
103	0x00000000	0.0
104	0x00000000	0.0
105	0x00000000	0.0
106	0x00000000	0.0
107	0x00000000	0.0
108	0x00000000	0.0
109	0x00000000	0.0
110	0x00000000	0.0
111	0x00000000	0.0
112	0x00000000	0.0
113	0x00000000	0.0
114	0x00000000	0.0
115	0x00000000	0.0
116	0x00000000	0.0
117	0x00000000	0.0
118	0x00000000	0.0
119	0x00000000	0.0
120	0x00000000	0.0
121	0x00000000	0.0
122	0x00000000	0.0
123	0x00000000	0.0
124	0x00000000	0.0
125	0x00000000	0.0
126	0x00000000	0.0
127	0x00000000	0.0
128	0x00000000	0.0
129	0x00000000	0.0
130	0x00000000	0.0
131	0x00000000	0.0
132	0x00000000	0.0
133	0x00000000	0.0
134	0x00000000	0.0
135	0x00000000	0.0
136	0x00000000	0.0
137	0x00000000	0.0
138	0x00000000	0.0
139	0x00000000	0.0
140	0x00000000	0.0
141	0x00000000	0.0
142	0x00000000	0.0
143	0x00000000	0.0
144	0x00000000	0.0
145	0x00000000	0.0
146	0x00000000	0.0
147	0x00000000	0.0
148	0x00000000	0.0
149	0x00000000	0.0
150	0x00000000	0.0
151	0x00000000	0.0
152	0x00000000	0.0
153	0x00000000	0.0
154	0x00000000	0.0
155	0x00000000	0.0
156	0x00000000	0.0
157	0x00000000	0.0
158	0x00000000	0.0
159	0x00000000	0.0
160	0x00000000	0.0
161	0x00000000	0.0
162	0x00000000	0.0
163	0x00000000	0.0
164	0x00000000	0.0
165	0x00000000	0.0
166	0x00000000	0.0
167	0x00000000	0.0
168	0x00000000	0.0
169	0x00000000	0.0
170	0x00000000	0.0
171	0x00000000	0.0
172	0x00000000	0.0
173	0x00000000	0.0
174	0x00000000	0.0
175	0x00000000	0.0
176	0x00000000	0.0
177	0x00000000	0.0
178	0x00000000	0.0
179	0x00000000	0.0
180	0x00000000	0.0
181	0x00000000	0.0
182	0x00000000	0.0
183	0x00000000	0.0
184	0x00000000	0.0
185	0x00000000	0.0
186	0x00000000	0.0
187	0x00000000	0.0
188	0x00000000	0.0
189	0x00000000	0.0
190	0x00000000	0.0
191	0x00000000	0.0
192	0x00000000	0.0
193	0x00000000	0.0
194	0x00000000	0.0
195	0x00000000	0.0
196	0x00000000	0.0
197	0x00000000	0.0
198	0x00000000	0.0
199	0x00000000	0.0
200	0x00000000	0.0
201	0x00000000	0.0
202	0x00000000	0.0
203	0x00000000	0.0
204	0x00000000	0.0
205	0x00000000	0.0
206	0x00000000	0.0
207	0x00000000	0.0
208	0x00000000	0.0
209	0x00000000	0.0
210	0x00000000	0.0
211	0x00000000	0.0
212	0x00000000	0.0
213	0x00000000	0.0
214	0x00000000	0.0
215	0x00000000	0.0
216	0x00000000	0.0
217	0x00000000	0.0
218	0x00000000	0.0
219	0x00000000	0.0
220	0x00000000	0.0
221	0x00000000	0.0
222	0x00000000	0.0
223	0x00000000	0.0
224	0x00000000	0.0
225	0x00000000	0.0
226	0x00000000	0.0
227	0x00000000	0.0
228	0x00000000	0.0
229	0x00000000	0.0
230	0x00000000	0.0
231	0x00000000	0.0
232	0x00000000	0.0
233	0x00000000	0.0
234	0x00000000	0.0
235	0x00000000	0.0
236	0x00000000	0.0
237	0x00000000	0.0
238	0x00000000	0.0
239	0x00000000	0.0
240	0x00000000	0.0
241	0x00000000	0.0
242	0x00000000	0.0
243	0x00000000	0.0
244	0x00000000	0.0
245	0x00000000	0.0
246	0x00000000	0.0
247	0x00000000	0.0
248	0x00000000	0.0
249	0x00000000	0.0
250	0x00000000	0.0
251	0x00000000	0.0
252	0x00000000	0.0
253	0x00000000	0.0
254	0x00000000	0.0
255	0x00000000	0.0

l1.weight f4 [600, 100]
0	0x3c853cd3	0.016264355
1	0xbdae47bd	-0.08509777
2	0x3dc90563	0.098154806
3	0xbbd2091a	-0.0064097764
4	0x3cf25547	0.029581679
5	0xbdbe0cd3	-0.0927979
6	0x3d8e1f13	0.06939521
7	0x3cbcef7a	0.02306341
8	0x3d32a2b3	0.043612193
9	0xbdb5feff	-0.08886527
10	0xbcfbd353	-0.030740416
11	0x3dabded7	0.08392113
12	0x3c907c00	0.017637253
13	0xbdabb820	-0.083847284
14	0x3d8a6df3	0.067592524
15	0xbd9d791f	-0.07689118
16	0xbd8c1067	-0.06839066
17	0xbca3d58d	-0.01999929
18	0x3d83fa2d	0.064442016
19	0xbcfe0b5a	-0.031011272
20	0x3dc1ecca	0.09468992
21	0x3d4a21ca	0.04934863
22	0x3d78b847	0.060722616
23	0x3d70b76d	0.05876868
24	0x3dc4d0aa	0.09610112
25	0x3da71b4b	0.081595026
26	0x3d5f1ac3	0.05446888
27	0xbd84e1d7	-0.06488388
28	0x3da0b67d	0.07847307
29	0xbd4deefa	-0.050276734
30	0xbcf9f1ed	-0.030510867
31	0xbda91548	-0.08256012
32	0xbcde0a33	-0.027104473
33	0x3d6c622d	0.057710815
34	0x3d7e924d	0.062151242
35	0x3dab19aa	0.083545044
36	0x3d8db4cb	0.06919249
37	0x3ce00acd	0.0273489
38	0x3d934840	0.07191515
39	0xbd875c68	-0.06609422
40	0x3ca57e47	0.020201815
41	0xbce439cd	-0.027859593
42	0xbd41b92a	-0.047295727
43	0x3cddd880	0.027080774
44	0x3cb207a0	0.021732152
45	0xbc20bd73	-0.009810793
46	0xbbc2fe00	-0.0059506893
47	0xbb370acd	-0.0027930022
48	0xbd9c4d75	-0.07631961
49	0xbd7278e3	-0.059197318
50	0xbc2063b3	-0.009789395
51	0x3db3042f	0.08741032
52	0xbdc21242	-0.09476139
53	0x3d48e4f7	0.049046483
54	0xbd49b1b0	-0.04924172
55	0x3c49644d	0.01229198
56	0x3cb5cfad	0.022193754
57	0x3cdab01a	0.0266953
58	0x3cf1d047	0.02951826
59	0xbc4e7933	-0.012602138
60	0x3d30e1a0	0.043183923
61	0xbdcb856a	-0.09937556
62	0x3d03b3a7	0.03215375
63	0x3cd924c7	0.026506795
64	0xbdb36add	-0.08760617
65	0x3cccd38d	0.025003219
66	0xbc921f7a	-0.017837275
67	0xbda6cd58	-0.08144635
68	0x3b2725cd	0.0025504709
69	0x3d1ef853	0.03881104
70	0xbd90d997	-0.07072752
71	0xbd4a3220	-0.04936421
72	0xbccb221a	-0.024796534
73	0x3d7baffa	0.06144712
74	0x3b2152cd	0.0024616004
75	0xbd439880	-0.047752857
76	0xbd6c32d0	-0.057665646
77	0x3d9e3cad	0.07726417
78	0x3d5cb1d7	0.05388054
79	0x3cb9165a	0.022593666
80	0x3c98cc67	0.018652154
81	0x3d501ada	0.050806858
82	0xbd501033	-0.0507967
83	0xbd6f9940	-0.05849576
84	0xbda7a5cd	-0.08185921
85	0xbd551cc7	-0.052029397
86	0x3d859bd0	0.065238595
87	0x3d3a5ead	0.045500446
88	0x3d82ae58	0.0638091
89	0x3db4f34b	0.08835467
90	0xbd6f3b27	-0.05840602
91	0xbd934b25	-0.07192067
92	0xbdbdb735	-0.092634596
93	0x3d637cf3	0.055539083
94	0xbd4746ca	-0.048651494
95	0xbd926f73	-0.071501635
96	0xbd197890	-0.037468493
97	0x3da413c2	0.08011581
98	0x3cf1b6a0	0.029506028
99	0x3d8de5e5	0.069286145
100	0x3c56024d	0.013062072
101	0x3d2c01a0	0.041993737
102	0x3d1e9137	0.038712706
103	0xbd843a08	-0.06456381
104	0x3da6f4d2	0.081521645
105	0xbd32d200	-0.043657303
106	0x3c30454d	0.01075871
107	0xbce7b247	-0.028283251
108	0x3ce65f73	0.028121686
109	0x3d4d4d23	0.05012239
110	0x3d5da180	0.054109097
111	0x3dc60e83	0.09670737
112	0xbd75b88a	-0.059990443
113	0xbd85c0fb	-0.06530949
114	0x3d05ad80	0.032636166
115	0x3db9d5d8	0.090739906
116	0x3c93d400	0.018045425
117	0xbd48c7f0	-0.0490188
118	0x3d043af3	0.03228278
119	0xbdc24be0	-0.09487128
120	0xbd1bce13	-0.038038325
121	0xbcca317a	-0.024681795
122	0x3d58219a	0.05276642
123	0x3c94b767	0.01815386
124	0x3d82f9ba	0.06395288
125	0xbdb18f10	-0.08669865
126	0xbc163827	-0.009168661
127	0x3cf6aac0	0.030110717
128	0xbc5360b3	-0.012901473
129	0xbd739d30	-0.059476078
130	0x3dc80847	0.09767204
131	0xbda5700a	-0.080780104
132	0x3d9eea47	0.077595286
133	0x3d9ee123	0.07757785
134	0x3bb1e5b3	0.0054289936
135	0x3d13a377	0.036044564
136	0xbd5085ad	-0.050908733
137	0xbd5638c0	-0.052300215
138	0x3da98db3	0.0827898
139	0x3ccc65f3	0.024950957
140	0xbda6de37	-0.08147853
141	0xbd6aca9d	-0.057322133
142	0x3d80898d	0.06276236
143	0xbdcc9d9d	-0.09991
144	0xbd5693f7	-0.052387204
145	0xbdad5da8	-0.08465129
146	0x3d63139a	0.055438615
147	0xbd36fef3	-0.044676732
148	0x3d7a10aa	0.06105105
149	0xbd40fed0	-0.047118008
150	0x3d1ef813	0.0388108
151	0xbcafa0cd	-0.02143898
152	0xbcfc1b60	-0.030774772
153	0x3cbc8c9a	0.023016263
154	0x3b8d86b3	0.004319036
155	0xbbbf32e7	-0.0058349255
156	0xbd1c455d	-0.038152087
157	0xbd07ffe3	-0.033203017
158	0xbdadd0c2	-0.08487083
159	0x3d16ebcd	0.03684597
160	0xbdbc38af	-0.09190499
161	0x3d0331f0	0.032030046
162	0xbd6cdba3	-0.05782665
163	0x3c7ee067	0.015556431
164	0x3d3f2f1d	0.04667579
165	0x3dbc8710	0.09205449
166	0xbd1b9957	-0.037988033
167	0x3c17a0c0	0.009254634
168	0xbd0644bd	-0.032780398
169	0x3d1950d0	0.037430584
170	0x3d765327	0.060137894
171	0xbd20524a	-0.039140977
172	0x3d74db1a	0.059779264
173	0x3cc99893	0.024608886
174	0xbd33ac3a	-0.04386542
175	0x3ca5a4a7	0.020220114
176	0xbd6ab8ca	-0.057305135
177	0x3d9e966a	0.07743533
178	0x3d7b4050	0.06134063
179	0xbd07108d	-0.03297477
180	0xbdc63be5	-0.09679393
181	0x3d49dd2a	0.049283184
182	0xbdc0d49a	-0.094155505
183	0xbd0d847d	-0.03455018
184	0x3d723c20	0.05913937
185	0x3dabad35	0.08382646
186	0x3d4741ca	0.048646726
187	0xbcd23647	-0.025660647
188	0x3d59c7c3	0.053169023
189	0xbcae5867	-0.021282388
190	0xbda967b5	-0.08271734
191	0xbd0c3d2a	-0.034238018
192	0x3d839f3a	0.064268544
193	0xbda9d668	-0.08292848
194	0xbda0a268	-0.078434765
195	0xbd6d6e3d	-0.05796646
196	0x3d5c618d	0.05380397
197	0xbb122f67	-0.0022306086
198	0x3dbc6eff	0.09200858
199	0xbdb6c90f	-0.08925068
200	0xbd81bea5	-0.06335191
201	0x3db9b85d	0.09068368
202	0xbd850d07	-0.064966254
203	0x3db526c2	0.08845283
204	0x3dc77cc7	0.09740596
205	0xbca8646d	-0.0205557
206	0x3d2c2d87	0.042035606
207	0xbdc22362	-0.09479405
208	0xbdab9807	-0.08378606
209	0xbd75d1bd	-0.060014475
210	0xbdb10c35	-0.086449064
211	0x3d784a50	0.060617745
212	0xbd7bc36a	-0.06146566
213	0x3d014ae0	0.031565547
214	0xbb4fdecd	-0.0031718493
215	0x3cffcf13	0.03122667
216	0x3d899685	0.067181624
217	0x3da2bdf0	0.07946384
218	0xbd619600	-0.05507469
219	0x3da7794a	0.08177431
220	0xbd33d75a	-0.043906547
221	0xbd429af3	-0.047511052
222	0x3d010200	0.031496048
223	0xbd5e3f80	-0.054259777
224	0x3cdd8f73	0.027045941
225	0xbdbccc85	-0.092186965
226	0x3d32fe57	0.04369959
227	0xbda01598	-0.07816619
228	0x3c6a06c0	0.014283836
229	0xbd1ba097	-0.037994947
230	0x3d6542b7	0.055971827
231	0x3ca00393	0.019532954
232	0xbd5a8eb0	-0.053358734
233	0x3d4351fa	0.0476856
234	0x3d10c5fd	0.035345066
235	0xbdb0eeff	-0.08639335
236	0x3da8b458	0.08237523
237	0x3ccf2080	0.025284052
238	0x3dbff457	0.09372776
239	0x3dc1a02f	0.09454381
240	0xbd21fe2d	-0.03954904
241	0x3d9f8b8b	0.077902876
242	0x3d834132	0.064089194
243	0xbd6fa0ad	-0.05850284
244	0x3c93d847	0.018047465
245	0xbc3a709a	-0.011379385
246	0xbcf5aa0d	-0.029988313
247	0xbcb45820	-0.022014678
248	0xbda6f87d	-0.08152864
249	0xbbe48380	-0.006973684
250	0x3cae2620	0.021258414
251	0xbda395b3	-0.07987537
252	0xbadcfa67	-0.0016859294
253	0x3dab10eb	0.08352836
254	0x3dbfdbf3	0.09368124
255	0x3dafe78f	0.08589088

l1.bias f4 [600]
0	0xbdaa2dd2	-0.08309521
1	0xbcd4db13	-0.025983369
2	0xbd248587	-0.040166404
3	0xbda25f8f	-0.079283826
4	0xbc921b4d	-0.017835284
5	0xbd587ae7	-0.052851584
6	0x3d6a939d	0.05726968
7	0xbdca0ec2	-0.09866096
8	0x3dca46f7	0.09876817
9	0x3d5fb4ed	0.054615904
10	0xbcc7b320	-0.024377406
11	0xbd455e80	-0.048185825
12	0xbd092327	-0.03348079
13	0x3c0ac280	0.008469224
14	0x3d6e58c0	0.058190107
15	0x3d05ffba	0.032714583
16	0x3dac8177	0.08423131
17	0xbd232c87	-0.039837386
18	0x3d42eed7	0.047591057
19	0xbdc772df	-0.09738707
20	0xbd098c5a	-0.033581115
21	0xbd7a2eba	-0.06107972
22	0xbd638c8a	-0.05555395
23	0xbb5544cd	-0.003254223
24	0x3b855f9a	0.0040702345
25	0x3daf42ca	0.08557661
26	0xbdb8a7fd	-0.09016416
27	0x3d2622e7	0.04056063
28	0x3dc8e4c8	0.098092616
29	0x3dbb34cb	0.09140929
30	0x3bbb1d4d	0.00571028
31	0xbcb18667	-0.021670533
32	0x3d0a126a	0.033708967
33	0x3da626dd	0.08112881
34	0x3d8665db	0.06562396
35	0xbd158fdd	-0.03651415
36	0x3c1e9c1a	0.009680772
37	0x3da0dc53	0.078545235
38	0x3db85ceb	0.09002098
39	0xbd06fa6d	-0.03295367
40	0x3d885bbf	0.06658124
41	0x3cfaf4b3	0.03063426
42	0xbda7aff8	-0.0818786
43	0xbdabbdeb	-0.08385833
44	0xbd2991ad	-0.041398693
45	0xbd051247	-0.032488134
46	0x3d417b70	0.04723686
47	0xbd2bc4b7	-0.04193565
48	0x3d58ff60	0.05297792
49	0xbd624593	-0.055242132
50	0xbd975d8f	-0.07390892
51	0xbd12bfc0	-0.0358274
52	0x3d5518ea	0.052025713
53	0x3d93e0f3	0.0722064
54	0xbdc4e82b	-0.09614595
55	0xbda17058	-0.07882756
56	0x3d936f95	0.07199017
57	0x3d985b30	0.07439268
58	0xbceb931a	-0.028756667
59	0x3cef698d	0.029225135
60	0x3d480e67	0.04884186
61	0xbd4c0453	-0.04980881
62	0x3d8499a7	0.06474619
63	0x3bc6bf33	0.006065273
64	0x3d7b0fe0	0.061294436
65	0x3db78190	0.08960259
66	0xbc60699a	-0.013697052
67	0xbd9a4cc8	-0.07534176
68	0xbd3465cd	-0.044042397
69	0x3da9bd60	0.082880735
70	0x3caae8cd	0.020862961
71	0xbdbe484a	-0.09291132
72	0x3d81705d	0.0632026
73	0x3bc3cf4d	0.00597564
74	0x3dc4364b	0.09580668
75	0xbdab5d5d	-0.08367417
76	0xbd13be73	-0.0360703
77	0x3ccd5e60	0.025069416
78	0x3d43ee4d	0.047834683
79	0x3d9f5533	0.07779922
80	0xbd33d3c7	-0.04390314
81	0x3dab597f	0.083666794
82	0xbcf91507	-0.030405534
83	0xbd00a967	-0.031411555
84	0xbd1e84c7	-0.038700845
85	0x3b632b33	0.00346632
86	0x3d9ebc7a	0.07750793
87	0x3d4297b7	0.047507968
88	0x3c34851a	0.011018062
89	0xbd623fe0	-0.055236697
90	0xbc9f35e0	-0.01943487
91	0xbd869608	-0.06571585
92	0xbca30e20	-0.019904196
93	0x3d3b6eda	0.045760013
94	0xbdc0d813	-0.09416213
95	0x3dc99c9a	0.098443225
96	0x3dc94692	0.09827913
97	0xbd3a0493	-0.04541452
98	0x3da8326f	0.082127444
99	0xbd90ea5d	-0.07075951
100	0xbbd95acd	-0.0066331387
101	0xbd1111f7	-0.035417523
102	0x3b4fd333	0.0031711578
103	0xbd19e6ca	-0.037573613
104	0x3d7ea770	0.0621714
105	0xbd29e993	-0.04148252
106	0x3d44837d	0.04797696
107	0xbdb57178	-0.08859533
108	0xbcfcf6e7	-0.030879451
109	0x3cbc8f67	0.023017598
110	0x3d9a8daa	0.075465515
111	0xbca50280	-0.020142794
112	0xbc5c928d	-0.013462675
113	0xbdbe9ef5	-0.093076624
114	0x383ff333	4.5764446e-05
115	0xbd9d8e25	-0.076931275
116	0xbd4ec46a	-0.050480284
117	0x3c1b95b3	0.00949614
118	0x3dbea572	0.093089
119	0x3dc523dd	0.09625981
120	0xbdb051cf	-0.08609354
121	0x3da7dfc7	0.08196979
122	0x3d778e83	0.060438644
123	0xbda07962	-0.07835652
124	0x3dc08d25	0.09401921
125	0x3dc225e3	0.094798826
126	0xba5144cd	-0.00079829694
127	0x3d281343	0.041033994
128	0xbd9d751f	-0.07688355
129	0x3db6a89d	0.08918879
130	0xbd44afd3	-0.04801924
131	0x3d1dc5a3	0.03851856
132	0x3dca3b5f	0.098746054
133	0x3d92f75f	0.071760885
134	0x3ccd7c20	0.025083601
135	0x3d221070	0.039566457
136	0x3d4385d3	0.047735047
137	0x3cb860e0	0.022507131
138	0x3d94d778	0.0726766
139	0x3badda00	0.0053055286
140	0xbd69da30	-0.057092845
141	0xbb80f033	-0.003934884
142	0xbd602a43	-0.054727804
143	0xbc71b580	-0.014752746
144	0x3da68762	0.08131291
145	0x3c56ce4d	0.013110709
146	0x3cf10420	0.029420912
147	0x3d8337b7	0.06407111
148	0x3d7f048a	0.06226019
149	0x3d8d7037	0.06906169
150	0x3db64c70	0.08901298
151	0xbdbd4968	-0.09242517
152	0xbd6a0a4d	-0.05713873
153	0x3c95af07	0.018271936
154	0xbca948ad	-0.020664537
155	0x3d528eda	0.051405765
156	0x3d671e6a	0.05642549
157	0x3d5185a7	0.05115285
158	0xbd360a0d	-0.04444318
159	0xbd9b928f	-0.07596313
160	0xbdbe2c80	-0.092858315
161	0x3d00a10d	0.03140359
162	0xbc4a5ff3	-0.012351978
163	0xbcc505c0	-0.024050593
164	0x3b37a1cd	0.0028020025
165	0x3d6da757	0.058020916
166	0xbd16d6e3	-0.036826026
167	0x3d4f386d	0.05059092
168	0xbba8fbe7	-0.005156982
169	0x3c6884e7	0.014191843
170	0xbd3d3e2d	-0.046201874
171	0xbcbc4620	-0.022982657
172	0xbc36e8a7	-0.011163867
173	0xbcef44d3	-0.029207623
174	0x3d38a5ed	0.045080114
175	0x3d4ebf47	0.050475385
176	0xbd4355f7	-0.047689404
177	0xbd95ea07	-0.07320028
178	0x3d3beb6a	0.045878805
179	0x3bc9c84d	0.006157911
180	0xbd93bf15	-0.072141804
181	0xbdaab142	-0.083345905
182	0xbd1ca8a3	-0.038246762
183	0x3db667c3	0.0890651
184	0x3d0e020d	0.034669925
185	0x3d1ff487	0.03905156
186	0xbd9cea1d	-0.07661841
187	0xbd52c977	-0.051461663
188	0xbda409b5	-0.08009664
189	0x3d091780	0.033469677
190	0xbcee884d	-0.029117728
191	0xbca95fa7	-0.020675493
192	0x3d857040	0.065155506
193	0xbc1bf080	-0.009517789
194	0xbdb48e5a	-0.08816214
195	0x3d90a953	0.07063546
196	0xbd96e46d	-0.073677875
197	0xbd0a2487	-0.03372624
198	0x3cdf048d	0.02722385
199	0xbd7fda5d	-0.062464107
200	0xbd99899a	-0.074969485
201	0xbda461e3	-0.08026483
202	0xbda0d4da	-0.07853098
203	0x3d40b42d	0.04704683
204	0xbd605c5a	-0.054775573
205	0x3c91140d	0.017709756
206	0x3ce7bfb3	0.028289651
207	0xbd850ca8	-0.064965546
208	0x3a98da00	0.0011661649
209	0x3d45d503	0.048298847
210	0xbb1ec3cd	-0.0024225593
211	0x3c78f25a	0.0151945
212	0xbd285aea	-0.041102327
213	0x3d44e763	0.04807223
214	0xbbc3c3e7	-0.005974281
215	0xbcb967e7	-0.022632552
216	0x3d98ddef	0.074642055
217	0xbdbdc94f	-0.09266912
218	0xbcf14bba	-0.029455055
219	0x3d72973a	0.059226252
220	0xbc736b67	-0.01485715
221	0x3c868dfa	0.016425122
222	0x3dad4eed	0.084623195
223	0xbc780b0d	-0.015139353
224	0x3ca98433	0.02069292
225	0xbd928b40	-0.07155466
226	0x3a8f5e00	0.0010938048
227	0x3d11ce83	0.035597336
228	0x3d58c123	0.052918565
229	0xbda752c3	-0.081700824
230	0xbd84b71a	-0.06480236
231	0xbdc54c80	-0.09633732
232	0x3ab93a00	0.0014131665
233	0xbadf2b33	-0.0017026424
234	0x3a2ac267	0.00065139536
235	0xbdcc4db3	-0.099757574
236	0xbd8330b5	-0.064057745
237	0xbce9b64d	-0.02852931
238	0xbbb5cc67	-0.0055480483
239	0xbdb3a97d	-0.08772562
240	0x3c320433	0.010865259
241	0xbb3d4e00	-0.0028885603
242	0x3bcc191a	0.0062285783
243	0x3ce255c7	0.027628792
244	0x3daf8cff	0.08571815
245	0xbb4b7533	-0.0031045198
246	0x3d517e3a	0.05114577
247	0x3c93434d	0.017976427
248	0xbc539ccd	-0.012915802
249	0xbd561e27	-0.05227485
250	0xbda18063	-0.07885816
251	0x3d763d0d	0.060116816
252	0xbd9812e3	-0.07425477
253	0xbd9236e3	-0.07139375
254	0xbd63679d	-0.055518735
255	0x3dbba313	0.09161963

blocks.0.0.fn.0.weight f4 [10]
0	0x3f800000	1.0
1	0x3f800000	1.0
2	0x3f800000	1.0
3	0x3f800000	1.0
4	0x3f800000	1.0
5	0x3f800000	1.0
6	0x3f800000	1.0
7	0x3f800000	1.0
8	0x3f800000	1.0
9	0x3f800000	1.0

blocks.0.0.fn.0.bias f4 [10]
0	0x00000000	0.0
1	0x00000000	0.0
2	0x00000000	0.0
3	0x00000000	0.0
4	0x00000000	0.0
5	0x00000000	0.0
6	0x00000000	0.0
7	0x00000000	0.0
8	0x00000000	0.0
9	0x00000000	0.0

blocks.0.0.fn.1.keys.weight f4 [10, 10]
0	0xbda1e9c0	-0.079059124
1	0xbe768029	-0.24072327
2	0x3d5925b8	0.053014487
3	0xbdf1234c	-0.117743105
4	0xbd449c5a	-0.04800067
5	0xbe6452bd	-0.22297187
6	0x3dc7d9f5	0.09758369
7	0xbe6061e5	-0.21912344
8	0xbe031e5f	-0.12804554
9	0x3e9411df	0.28919885
10	0xbd920a7b	-0.07130905
11	0xbe1ddd74	-0.15416509
12	0x3dea3153	0.11435189
13	0x3d858042	0.06518604
14	0xbd9401fa	-0.072269395
15	0x3e9fc20a	0.31202728
16	0xbdfaf2e0	-0.12253356
17	0x3dfc2e83	0.12313559
18	0x3e5f15e0	0.21785688
19	0xbd9617de	-0.07328771
20	0x3dd970af	0.10617196
21	0x3e37ad6e	0.17937252
22	0x3e782562	0.2423301
23	0x3e873140	0.26404762
24	0xbd52e0b4	-0.051483825
25	0xbd2ea0e2	-0.0426339
26	0x3e648cf7	0.22319399
27	0x3e3026be	0.17202279
28	0xbdfe02bf	-0.124028675
29	0x3dfdee87	0.12399011
30	0x3e524cb1	0.20537068
31	0x3cc8310f	0.024437455
32	0x3e90f199	0.28309324
33	0x3dc4355c	0.0958049
34	0xbaaf87f7	-0.0013391961
35	0xbe7644ed	-0.2404973
36	0x3e3f2027	0.18664609
37	0x3e00756f	0.12544797
38	0xbd3ce069	-0.04611245
39	0xbe9e9379	-0.30971888
40	0xbe9fefe2	-0.31237704
41	0xbe7f57a4	-0.24935776
42	0xbddfd13b	-0.109285794
43	0x3d30d939	0.04317591
44	0xbe1656f7	-0.14681612
45	0x3d812dc6	0.06307559
46	0x3e91b106	0.2845537
47	0x3e5c1de1	0.21495773
48	0x3e680954	0.22659808
49	0x3e841065	0.25793758
50	0xbd88c99a	-0.066790774
51	0xbe836b98	-0.25668025
52	0xbdd76abe	-0.10518406
53	0x3c88b9e8	0.01669021
54	0xbe0f9b51	-0.14024092
55	0xbe56b942	-0.20969108
56	0x3e1c6816	0.1527408
57	0x3e229c27	0.1587988
58	0xbd9a06cc	-0.07520828
59	0xbe2decd9	-0.16984881
60	0x3e881297	0.26576683
61	0xbbe7609f	-0.0070610787
62	0x3a4d7079	0.0007836889
63	0x3d83c4b5	0.06434003
64	0xbe43f4fd	-0.19136424
65	0x3d8a717c	0.06759927
66	0x3d169596	0.03676375
67	0x3d09ce18	0.033643812
68	0xbdd24b03	-0.102682136
69	0xbe6a2307	-0.22864924
70	0xbe8daf5e	-0.27672857
71	0xbe86a9e3	-0.26301488
72	0xbbe05347	-0.006845865
73	0xbea0ff14	-0.3144461
74	0xbd361e68	-0.04446259
75	0x3e861711	0.26189473
76	0xbd3ca51e	-0.046055906
77	0x3e67a04b	0.2261974
78	0x3e58c9f1	0.21170785
79	0x3d52b673	0.05144353
80	0x3e52e06d	0.20593424
81	0xbe8cfe68	-0.27537847
82	0xbd85f59e	-0.065409884
83	0x3e044fb8	0.12921035
84	0xbd97d759	-0.07414121
85	0x3e37553b	0.17903607
86	0x3e911595	0.28336778
87	0xbea1595e	-0.31513494
88	0x3db357ce	0.08756982
89	0x3e856d6b	0.26060042
90	0x3db02fd3	0.08602872
91	0xbdee16ab	-0.11625417
92	0xbd898ddc	-0.06716511
93	0x3d4e4110	0.050355017
94	0xbe3a952b	-0.18220966
95	0x3e8e9b6e	0.27852958
96	0xbe8a5643	-0.27018937
97	0x3e891989	0.26777294
98	0x3e0a349c	0.13496631
99	0x3e70508a	0.23468223

blocks.0.0.fn.1.keys.bias f4 [10]
0	0xbe6511f0	-0.22370124
1	0xbd80427b	-0.0626268
2	0x3e46115a	0.19342557
3	0xbe83d773	-0.25750312
4	0xbd5c5e20	-0.053800702
5	0xbdcd7e77	-0.10033887
6	0xbea0eeb9	-0.3143213
7	0xbda20c52	-0.07912506
8	0xbd7c5906	-0.061608337
9	0x3bfeb352	0.0077728415

blocks.0.0.fn.1.queries.weight f4 [10, 10]
0	0xbdabbef2	-0.08386029
1	0x3cd9b1ed	0.0265741
2	0x3d4b244a	0.049595155
3	0x3e9cc5e1	0.3061972
4	0xbe96a780	-0.29424667
5	0x3e15ea25	0.146401
6	0xbd532ab4	-0.051554397
7	0x3e1a13df	0.15046643
8	0x3e572c4a	0.21012989
9	0x3ea1648e	0.3152203
10	0x3e04132c	0.12897938
11	0x3e909c43	0.28244218
12	0xbe272a23	-0.16324668
13	0x3c9170d1	0.01775399
14	0x3e59ccc1	0.21269514
15	0x3e61d4b3	0.22053795
16	0xbdf1bd52	-0.11803688
17	0xbe3feea1	-0.18743373
18	0xbe6bfe60	-0.23046255
19	0xbe0a69b2	-0.13516882
20	0xbe8aad26	-0.27085227
21	0x3e70f924	0.2353254
22	0x3e4fcab5	0.2029217
23	0x3e78775b	0.2426428
24	0xbdf8bc88	-0.121453345
25	0x3e2c0af5	0.16801055
26	0x3e95b172	0.29236943
27	0xbd016fbb	-0.031600695
28	0xbe0d1847	-0.13778792
29	0x3e8857e2	0.2662955
30	0x3e42daf7	0.19028841
31	0x3d895514	0.067056805
32	0x3e6ee0d6	0.23327956
33	0xbde82a38	-0.113361776
34	0xbc85c3d5	-0.016328732
35	0xbe7bcae6	-0.24589118
36	0xbc134ce5	-0.008990501
37	0x3d3fab20	0.046794057
38	0xbd19b1a7	-0.037522938
39	0x3e6120fc	0.21985239
40	0xbea0f40b	-0.3143619
41	0xbd36e2bf	-0.044649836
42	0xbe0629c9	-0.13101877
43	0x3e33616e	0.17517635
44	0x3e5bacac	0.21452588
45	0xbb9d12e4	-0.0047935117
46	0x3b0822d4	0.0020772712
47	0xbe1fffae	-0.15624878
48	0xbe99862a	-0.29985172
49	0xbd1e7b64	-0.038691893
50	0xbe9fe06e	-0.31225914
51	0xbe73e2d8	-0.23817003
52	0x3e0fb19c	0.14032596
53	0x3d8fc33d	0.070196606
54	0x3e0f51e9	0.1399609
55	0x3da0640a	0.07831581
56	0x3dda5232	0.10660209
57	0x3bcd0d7e	0.006257712
58	0x3d799c39	0.06094
59	0x3e2dba8d	0.16965695
60	0x3dc9fafa	0.09862323
61	0xbe824cb4	-0.25449145
62	0x3e5df86b	0.21676795
63	0xbd9bcfba	-0.0760798
64	0x3d93e3a3	0.07221153
65	0xbdc84588	-0.09778887
66	0xbe5093f8	-0.20368946
67	0xbd17901e	-0.037002675
68	0x3e5c9e47	0.21544753
69	0xbe86f0e6	-0.26355666
70	0xbe24b01c	-0.16082805
71	0xbe8bd706	-0.27312487
72	0xbe63abb6	-0.22233471
73	0xbe968089	-0.2939494
74	0x3e2d432c	0.16920155
75	0x3d75817a	0.05993793
76	0xbbe720bf	-0.007053464
77	0x3e6874e6	0.22700843
78	0xbe3d3fdd	-0.18481393
79	0x3e3f246f	0.18666242
80	0xbdb64ed5	-0.08901755
81	0xbe91e1c8	-0.2849257
82	0x3def8bdb	0.11696597
83	0xbe507300	-0.20356369
84	0xbe4368d5	-0.19082959
85	0x3e7e4377	0.24830423
86	0x3dc7812d	0.09741435
87	0xbe9be1fd	-0.30445853
88	0x3e1cdb20	0.15317965
89	0x3e1d9838	0.15390098
90	0x3e14b936	0.14523777
91	0xbd90c14a	-0.07068117
92	0x3e93484d	0.287661
93	0xbe89e4ab	-0.26932272
94	0xbdc39d0f	-0.09551441
95	0xbdf352d2	-0.11881031
96	0xbe907615	-0.2821509
97	0x3d9f570d	0.077802755
98	0xbe05e03b	-0.13073818
99	0xbe5b7fea	-0.21435514

blocks.0.0.fn.1.queries.bias f4 [10]
0	0x3e9f2d25	0.3108913
1	0x3d572689	0.052526984
2	0xbe3539bc	-0.17697805
3	0x3e10feec	0.14159745
4	0xbda306d0	-0.07960284
5	0xbdd297f9	-0.10282893
6	0x3c33aba5	0.010966216
7	0xbd86fc07	-0.06591039
8	0x3e11024b	0.14161031
9	0xbdef780d	-0.1169282

blocks.0.0.fn.1.values.weight f4 [10, 10]
0	0xbd1de747	-0.03855064
1	0x3e14f842	0.14547828
2	0xbe22f88d	-0.15915127
3	0x3d07a590	0.033116877
4	0xbdd16ace	-0.102254495
5	0xbcfc2ed9	-0.030784057
6	0xbdbdf0dc	-0.09274456
7	0x3d528662	0.05139769
8	0xbe87b6f9	-0.26506785
9	0x3e5f1fb5	0.21789439
10	0xbe0ad579	-0.13557996
11	0x3e02b148	0.1276294
12	0xbe88a07b	-0.26684937
13	0x3e828a10	0.25495958
14	0x3de363cd	0.1110302
15	0x3e6519c9	0.22373118
16	0xbe3130b8	-0.17303741
17	0x3dfbbb90	0.12291634
18	0x3e4cd139	0.20001687
19	0x3d830452	0.063973084
20	0x3d956acb	0.0729576
21	0xbe1b5cea	-0.15172163
22	0xbe9ef04d	-0.3104271
23	0x3d026885	0.03183796
24	0x3cbb3910	0.022854358
25	0x3e82b5ba	0.2552927
26	0xbdd52630	-0.10407674
27	0xbe55e422	-0.20887807
28	0x3e397362	0.18110421
29	0xbdf7774b	-0.120833
30	0x3e69f5c7	0.22847663
31	0xbe0bddf0	-0.13658881
32	0xbe4c7788	-0.19967473
33	0xbe5c9007	-0.21539317
34	0x3e9a45c9	0.30131367
35	0x3d2d6683	0.04233409
36	0xbd436a3e	-0.047708742
37	0xbdf78345	-0.120855846
38	0x3dc9b5b4	0.0984911
39	0xbd16587a	-0.03670547
40	0xbd073895	-0.033012945
41	0x3d883d83	0.066523574
42	0x3dee7f8f	0.116454236
43	0x3e44e701	0.19228746
44	0x3e20b140	0.15692616
45	0x3e9e9cc3	0.30978975
46	0xbe90437a	-0.2817648
47	0x3e929f74	0.28637278
48	0xbe80190d	-0.25019112
49	0x3e852f6a	0.26012737
50	0xbd2996d5	-0.04140361
51	0x3d05e152	0.032685585
52	0xbd906396	-0.070502445
53	0xbdf29eed	-0.11846719
54	0x3e977f30	0.29589224
55	0xbe8d227f	-0.2756538
56	0xbe3a2cd2	-0.1818116
57	0xbd422f01	-0.047408108
58	0x3e24b6eb	0.16085403
59	0x3e861afb	0.2619246
60	0xbe8eabbc	-0.27865398
61	0x3d8c397c	0.06846902
62	0xbdf9f8ff	-0.12205695
63	0x3da643f6	0.08118431
64	0xbe5534cb	-0.2082092
65	0x3cee9047	0.029121531
66	0xbe9463ed	-0.28982487
67	0x3e7f4ee7	0.24932443
68	0xbcfd239b	-0.030900767
69	0xbe8af383	-0.2713891
70	0xbd64a2fe	-0.055819504
71	0xbda5347b	-0.080666505
72	0x3dc194ba	0.094521955
73	0xbe0d4fc4	-0.1379996
74	0xbe19565f	-0.14974354
75	0xbe3f67a4	-0.1869188
76	0x3e9770e9	0.2957833
77	0xbd4b6af7	-0.049662556
78	0x3e11ee4c	0.1425106
79	0xbde39da6	-0.111140534
80	0x3e5a5840	0.21322727
81	0x3e384a4f	0.17997096
82	0xbe188ed5	-0.14898236
83	0x3e07c92e	0.13260338
84	0x3de9a9d2	0.11409344
85	0xbe8b82be	-0.27248186
86	0x3e97e8f7	0.29669926
87	0x3e263081	0.1622944
88	0xbe4a7c09	-0.19773878
89	0x3b94776a	0.004530837
90	0x3dc362da	0.09540339
91	0xbdec5e9e	-0.11541484
92	0xbc80236a	-0.015641887
93	0xbe9c04af	-0.30472323
94	0x3e0d3f13	0.13793592
95	0x3cd5d8e0	0.02610439
96	0xbde76bca	-0.11299856
97	0x3d8fe72c	0.070265144
98	0xbd0258e8	-0.03182307
99	0x3d87b0f8	0.06625551

blocks.0.0.fn.1.values.bias f4 [10]
0	0xbe38f906	-0.18063745
1	0xbdcc3c9b	-0.09972497
2	0xbea05bf2	-0.3132015
3	0xbc374365	-0.011185502
4	0x3dbd5074	0.09243861
5	0xbdc892df	-0.097936384
6	0xbe9b5d6e	-0.3034472
7	0xbe1ad19b	-0.1511902
8	0xbe986be8	-0.29769826
9	0xbe46f55f	-0.19429539

blocks.0.0.fn.1.projection.weight f4 [10, 10]
0	0x3dc766cf	0.09736406
1	0x3e791a25	0.2432638
2	0x3e8c24a5	0.27371708
3	0x3d6658cf	0.05623704
4	0x3e5036a6	0.20333347
5	0x3e810e4e	0.25206226
6	0x3d9751af	0.07388627
7	0xbd8a06a8	-0.06739551
8	0xbe849df3	-0.25901756
9	0x3a99666e	0.00117035
10	0xbe712daf	-0.23552583
11	0x3e5197d4	0.20468074
12	0xbd5f8a5b	-0.054575305
13	0x3e88be3b	0.26707634
14	0xbd605236	-0.054765902
15	0xbced04ad	-0.028932894
16	0xbe302ff9	-0.172058
17	0xbe616aaf	-0.22013353
18	0x3e06e5f1	0.13173653
19	0x3e8133e1	0.25234893
20	0x3ca6362f	0.020289509
21	0x3da1610b	0.078798376
22	0xbe5e3ac0	-0.21702099
23	0xbe0408a8	-0.12893927
24	0x3d557aa4	0.052118912
25	0x3db19070	0.086701274
26	0xbe5ffa40	-0.21872807
27	0xbdf69aaa	-0.120412186
28	0xbde1e06c	-0.11029133
29	0xbd895898	-0.06706351
30	0xbe45b0cb	-0.19305722
31	0xb9e4ca71	-0.0004363838
32	0xbcc417f9	-0.023937212
33	0xbc118953	-0.008882838
34	0xbd317bec	-0.04333107
35	0xbe869868	-0.26288152
36	0x3e831e5b	0.25609097
37	0x3e6c92d1	0.23102881
38	0x3e8936c7	0.26799604
39	0xbe7dea72	-0.24796465
40	0xbe5fb69e	-0.21847007
41	0x3d4db082	0.05021716
42	0x3d57968f	0.05263382
43	0x3e41d560	0.18929052
44	0x3e2cb8d3	0.1686738
45	0x3e490a44	0.19632822
46	0xbd3482c2	-0.044070013
47	0xbde01918	-0.10942286
48	0x3e65519c	0.22394413
49	0xbd62e281	-0.055391792
50	0xbe4d6417	-0.20057712
51	0xbe0035a3	-0.12520461
52	0xbda76837	-0.08174174
53	0x3e83d447	0.25747892
54	0xbdfed12a	-0.12442239
55	0xbe358134	-0.17725068
56	0xbe4f553d	-0.2024736
57	0xbd8a0eb9	-0.067410894
58	0xbe534a49	-0.20633806
59	0x3ddc6d80	0.10763073
60	0x3da3274e	0.07966481
61	0xbddcccbf	-0.1078124
62	0x3e45c170	0.19312072
63	0x3d31b88f	0.0433889
64	0x3e93b7e6	0.2885124
65	0xbe87a01c	-0.2648934
66	0xbe8e7b17	-0.27828285
67	0xbb7404e6	-0.0037234365
68	0xbe125e0c	-0.14293689
69	0xbcc23e80	-0.023711443
70	0x3e929624	0.28630173
71	0x3e3f796b	0.18698661
72	0x3db9070c	0.09034547
73	0x3cc10fca	0.0235671
74	0x3bb38b64	0.005479263
75	0xbe99c4c6	-0.3003294
76	0xbe5b14e9	-0.21394695
77	0x3d3dbeeb	0.04632465
78	0xbe956457	-0.29178116
79	0xbe5b4c40	-0.21415806
80	0x3dd2b87c	0.10289094
81	0xbe71cf30	-0.23614192
82	0x3e2b422c	0.16724461
83	0x3e57ee1d	0.21086927
84	0xba6b2f3d	-0.00089715776
85	0x3e1e7f74	0.15478307
86	0x3ea02510	0.31278276
87	0x3e180d2b	0.14848773
88	0xbe9db728	-0.308038
89	0x3e440abd	0.19144721
90	0xbd6d1fad	-0.057891537
91	0xbe9f24ac	-0.31082666
92	0xbdd86860	-0.10566783
93	0x3b0f2e98	0.002184784
94	0xbe5b2f93	-0.21404867
95	0xbc8c13fe	-0.017099377
96	0xbdd2af79	-0.10287375
97	0x3e8c7c69	0.27438667
98	0x3cc084cf	0.023500828
99	0xbb434363	-0.0029794804

blocks.0.0.fn.1.projection.bias f4 [10]
0	0x3db30466	0.08741073
1	0xbe1ae367	-0.1512581
2	0x3c4bc74e	0.012437655
3	0x3dc18b70	0.09450424
4	0xbe04e294	-0.12977058
5	0xbe51ee58	-0.20501077
6	0x3d97aeb7	0.07406371
7	0x3e6fa43a	0.23402491
8	0x3e095180	0.13409996
9	0xbd899b51	-0.067190774

blocks.0.1.fn.0.weight f4 [10]
0	0x3f800000	1.0
1	0x3f800000	1.0
2	0x3f800000	1.0
3	0x3f800000	1.0
4	0x3f800000	1.0
5	0x3f800000	1.0
6	0x3f800000	1.0
7	0x3f800000	1.0
8	0x3f800000	1.0
9	0x3f800000	1.0

blocks.0.1.fn.0.bias f4 [10]
0	0x00000000	0.0
1	0x00000000	0.0
2	0x00000000	0.0
3	0x00000000	0.0
4	0x00000000	0.0
5	0x00000000	0.0
6	0x00000000	0.0
7	0x00000000	0.0
8	0x00000000	0.0
9	0x00000000	0.0

blocks.0.1.fn.1.0.weight f4 [40, 10]
0	0xbe72c3db	-0.23707525
1	0xbe7b362a	-0.2453238
2	0xbe435571	-0.19075562
3	0xbe3ca454	-0.18422061
4	0x3e237652	0.15963104
5	0x3e931c86	0.287327
6	0xbe8dfa60	-0.27730083
7	0x3e4a7b2a	0.19773546
8	0x3cfd248e	0.03090122
9	0xbe8242be	-0.25441545
10	0xbc93c84e	-0.018039849
11	0xbd29ea97	-0.041483488
12	0xbe61b0c0	-0.22040081
13	0xbe107a35	-0.14109118
14	0xbe0e98bb	-0.1392545
15	0x3e515608	0.20442975
16	0x3d7b0171	0.06128067
17	0xbe4570eb	-0.19281356
18	0xbe0a11ea	-0.13483396
19	0xbda8b946	-0.08238463
20	0xbe1d64e9	-0.15370525
21	0x3e2139ac	0.15744656
22	0xbdacee0d	-0.08443842
23	0xbd9afad8	-0.07567376
24	0xbe15431b	-0.1457638
25	0xbe07e860	-0.13272238
26	0xbe514356	-0.20435843
27	0xbe9597c3	-0.29217348
28	0x3e9c3055	0.30505624
29	0xbe8a7fcc	-0.27050626
30	0x3dfdb25d	0.12387536
31	0x3e41c9c6	0.18924627
32	0xbe6c2e1e	-0.23064467
33	0x3c814d4d	0.01578393
34	0x3ccb2528	0.02479799
35	0xbe8525f3	-0.26005515
36	0xbd20cfc1	-0.03926063
37	0x3c6f59df	0.014608829
38	0xbd9df9a3	-0.0771363
39	0xbc8f2a02	-0.017476086
40	0x3d8b99e3	0.06816461
41	0xbe7eff8f	-0.24902175
42	0x3d655dce	0.055997662
43	0xbe8b9e6a	-0.27269298
44	0xbe6b165f	-0.22957753
45	0x3dd097f1	0.101852305
46	0xbe9c0e93	-0.3047987
47	0x3e859c14	0.2609564
48	0x3e1cf740	0.15328693
49	0xbe3de159	-0.18542995
50	0xbe65e517	-0.22450672
51	0x3d2f03be	0.04272818
52	0xbd6a2397	-0.057162847
53	0x3e665307	0.2249261
54	0x3d8e90b2	0.06961192
55	0x3e811c50	0.25216913
56	0xbe4a4a1a	-0.1975483
57	0x3d62884c	0.055305764
58	0x3e0f170e	0.13973638
59	0x3d803ed3	0.06261983
60	0x3d535ce7	0.05160227
61	0xbe9c3152	-0.30506378
62	0xbe025473	-0.12727527
63	0xbe40b5d5	-0.18819363
64	0xbdd9daeb	-0.106374584
65	0xbdd62951	-0.10457099
66	0x3c0ed427	0.008717573
67	0x3e82a7ba	0.2551859
68	0xbe54a5eb	-0.20766418
69	0x3dcf6a89	0.10127742
70	0x3c76ade5	0.015056108
71	0x3cd27905	0.025692472
72	0xbe517e2a	-0.20458284
73	0x3e5f4910	0.21805215
74	0x3d6bbf7a	0.057555653
75	0xbe8b25f6	-0.271774
76	0xbd1c0cf9	-0.03809831
77	0x3dc7b28c	0.09750852
78	0xbe196057	-0.14978157
79	0x3d94a225	0.07257489
80	0xbd5a91ef	-0.05336183
81	0x3e3041c7	0.17212592
82	0x3dd3a31b	0.10333844
83	0xbd9ae8c3	-0.07563927
84	0x3d75eae6	0.06003847
85	0x3e0c57ee	0.13705418
86	0xbd9f21b5	-0.07770101
87	0x3c46d89b	0.012136604
88	0xbe6130fe	-0.21991345
89	0xbe094f35	-0.13409121
90	0xbe8c5fe2	-0.27416903
91	0x3dbfbc34	0.09362069
92	0xbe9aea36	-0.30256814
93	0x3e86ace1	0.2630377
94	0xbe337dda	-0.17528477
95	0x3de861c6	0.11346774
96	0xbe8eb320	-0.27871037
97	0x3e312fbb	0.17303364
98	0x3dcc2cee	0.09969507
99	0x3ca0cabc	0.019627921
100	0xbdddc6b4	-0.10828915
101	0x3e6890a0	0.2271142
102	0xbe52dff7	-0.20593248
103	0x3bde5a43	0.0067856624
104	0xbe657ec8	-0.22411644
105	0x3e0d8dbc	0.13823599
106	0x3d59b8ce	0.05315476
107	0xbd011bcf	-0.03152066
108	0x3e4d7be3	0.2006679
109	0x3e760eb6	0.2402905
110	0x3dc30a4f	0.095234506
111	0xbdb9215f	-0.09039568
112	0x3d3e4342	0.04645086
113	0x3db3b3a6	0.087744996
114	0xbe9131fc	-0.28358448
115	0x3df81387	0.121130995
116	0xbe6ebf5e	-0.23315188
117	0x3d088d52	0.0333379
118	0xbe9df228	-0.30848813
119	0xbdee5dd2	-0.116389886
120	0xbc547f3d	-0.012969789
121	0xbe1ee42b	-0.15516727
122	0xba04afec	-0.0005061615
123	0xbe013378	-0.1261729
124	0xbe9e7f07	-0.3095629
125	0x3e34ff50	0.17675519
126	0x3e8d2b8d	0.2757229
127	0x3d1a1c93	0.037624907
128	0x3e5f7502	0.21821979
129	0x3d8b192f	0.06791913
130	0x3e150022	0.14550832
131	0x3e0819ae	0.13291046
132	0xbe684490	-0.22682405
133	0xbe99eb98	-0.30062556
134	0xbe5c5b17	-0.21519123
135	0x3e84067e	0.25786203
136	0x3e1e2ba7	0.1544634
137	0x3c4adf5a	0.012382353
138	0x3db6a283	0.089177154
139	0xbd1563a3	-0.036471974
140	0xbe7f1b75	-0.24912818
141	0xbe2ebad0	-0.17063451
142	0xbc3ee71b	-0.0116517795
143	0xbc96ddd8	-0.01841633
144	0x3e1085cf	0.14113544
145	0x3e1fc2ce	0.15601656
146	0x3e2290a9	0.15875496
147	0xbe4b2f44	-0.19842249
148	0xbe5ae7de	-0.21377513
149	0x3df3fcb2	0.11913432
150	0xbe8fb445	-0.28067222
151	0x3e7b2ecb	0.24529569
152	0xbe859c99	-0.26096037
153	0xbe86959d	-0.2628602
154	0x3def8713	0.11695685
155	0x3e9c27a8	0.30499005
156	0xbdb6f2fe	-0.08933066
157	0x3e942eb3	0.2894188
158	0xbe87d65d	-0.26530734
159	0xbe84f148	-0.25965333
160	0x3dc301b6	0.09521811
161	0xbdb37592	-0.08762659
162	0xbdc99ce1	-0.098443754
163	0x3e94559e	0.2897157
164	0x3e86b056	0.2630641
165	0x3df72439	0.12067456
166	0x3dd2d8f0	0.10295284
167	0x3e84cad1	0.25935987
168	0xbe921999	-0.28535154
169	0xbdb66377	-0.0890569
170	0xbe655391	-0.2239516
171	0xbd8a5672	-0.067547694
172	0xbe0a0b6e	-0.13480923
173	0xbccaaab3	-0.024739599
174	0x3e35b86a	0.1774613
175	0xbe94b26b	-0.29042372
176	0x3e50b288	0.20380604
177	0xbe4f4e85	-0.20244797
178	0x3e486bfc	0.19572443
179	0xbe8d6b65	-0.27620998
180	0x3e435727	0.19076215
181	0x3df1faa6	0.118153855
182	0x3e48cd79	0.19609632
183	0xbe257ddb	-0.16161291
184	0x3e116f32	0.14202574
185	0x3e1d47ed	0.15359469
186	0xbdb222df	-0.086980574
187	0xbe86a787	-0.26299688
188	0x3e946de0	0.28990078
189	0x3e921a94	0.28535903
190	0xbe5a0768	-0.21291888
191	0xbe6eef76	-0.23333535
192	0x3ea1d086	0.31604403
193	0x3d572ac4	0.05253102
194	0x3e584327	0.21119367
195	0xbe84cda4	-0.2593814
196	0x3cc7e23d	0.024399871
197	0x3e26bebc	0.16283697
198	0x3d05a4d7	0.032627907
199	0x3e577722	0.2104154
200	0x3e9f8d55	0.31162515
201	0xbce4ca20	-0.027928412
202	0x3dca9009	0.09890754
203	0xbe58edce	-0.21184465
204	0x3e8d46ba	0.27593023
205	0xbd4fccaa	-0.050732292
206	0xbde62479	-0.11237425
207	0xbd7fb44b	-0.0624278
208	0x3e09d3a8	0.13459647
209	0xbe9dff71	-0.3085895
210	0xbe69da62	-0.22837213
211	0xbe617eb2	-0.22020987
212	0x3e81d989	0.2536128
213	0x3e670ecc	0.22564238
214	0xbe560491	-0.2090018
215	0xbe01a707	-0.12661372
216	0x3e7bddaa	0.24596277
217	0x3dcbc9e5	0.09950618
218	0x3ea1611e	0.31519407
219	0xbe30a8c8	-0.17251885
220	0x3e8f2897	0.27960655
221	0x3e8932bc	0.2679652
222	0x3e56432e	0.20924065
223	0xbe95672a	-0.2918027
224	0xbe7e8a36	-0.24857411
225	0x3dd34821	0.10316492
226	0xbe63fcd6	-0.22264418
227	0xbe8b2206	-0.27174395
228	0x3e02919c	0.12750858
229	0x3cecee25	0.02892215
230	0x3b654991	0.0034986476
231	0xbd620f57	-0.05519041
232	0x3ddf0c75	0.10891048
233	0x3e7c21d0	0.24622273
234	0xbe11de84	-0.14245039
235	0xbc8bbae5	-0.017056892
236	0xbe60888b	-0.21927087
237	0x3d1066c0	0.03525424
238	0x3e446a0b	0.19181077
239	0x3e123dd7	0.14281403
240	0x3cbe3525	0.0232187
241	0xbe834076	-0.25635117
242	0x3e6e0c2a	0.23246828
243	0xbe822fc5	-0.2542707
244	0x3c1fcac0	0.009752929
245	0xbe5abbd0	-0.21360707
246	0x3deec00c	0.11657724
247	0x3e8ecc35	0.27890173
248	0x3e04796c	0.12936944
249	0x3e2b094d	0.16702767
250	0xbda9e393	-0.082953595
251	0xbcc56755	-0.024097124
252	0xbe1432e2	-0.14472535
253	0x3de6c0c5	0.112672366
254	0x3dbfd1f6	0.09366219
255	0x3e495fdb	0.19665472

blocks.0.1.fn.1.0.bias f4 [40]
0	0xbd201d90	-0.039090693
1	0x3e5e929a	0.21735612
2	0x3d41edaa	0.047345795
3	0x3e1f2ebb	0.1554517
4	0xbdcf9396	-0.10135572
5	0xbe76e576	-0.2411097
6	0x3e5a3c23	0.21312003
7	0xbd0e29f1	-0.034707967
8	0x3d4764c6	0.04868009
9	0x3e9b1f5c	0.30297363
10	0x3e7238a8	0.23654425
11	0x3da70884	0.08155921
12	0x3d8fe935	0.070269026
13	0xbe5551e3	-0.20832019
14	0xbe3afa4a	-0.1825954
15	0x3d74f499	0.05980358
16	0xbe60ef90	-0.21966386
17	0xbdc7305c	-0.09726021
18	0xbe3e8c59	-0.18608226
19	0xbe047580	-0.12935448
20	0x3d5d67ea	0.05405418
21	0x3d2f32e6	0.04277315
22	0xbe723355	-0.23652394
23	0x3e8af7a5	0.27142063
24	0xbc03a1b4	-0.0080341585
25	0x3e5e5770	0.21713042
26	0xbd7a5a79	-0.061121438
27	0xbdae69c2	-0.085162655
28	0x3dc77746	0.097395465
29	0xbe8b1dae	-0.2717108
30	0x3e2884f8	0.16456974
31	0x3d87315f	0.06601214
32	0xbe09ee7c	-0.13469881
33	0x3e9f2025	0.31079212
34	0xbdfb7efc	-0.1228008
35	0xbe7129bd	-0.23551078
36	0xbe2effd9	-0.17089786
37	0x3beb997d	0.007189928
38	0xbd43f47a	-0.047840573
39	0x3dc60044	0.096680194

blocks.0.1.fn.1.3.weight f4 [10, 40]
0	0x3b37739e	0.0027992497
1	0x3e059caa	0.13048044
2	0xbe067c24	-0.13133293
3	0xbdefb84c	-0.11705074
4	0xbda0349b	-0.07822534
5	0x3d15f5c6	0.03661134
6	0xbd8e8a7b	-0.06960007
7	0xbd9034ef	-0.07041346
8	0xbdb550d2	-0.08853306
9	0xbd89d426	-0.06729917
10	0xbe0e5655	-0.1390012
11	0xbd7a2633	-0.061071586
12	0x3e07868c	0.1323492
13	0xbe1f3d94	-0.15550834
14	0xbd678b8d	-0.05652957
15	0x3da3c26f	0.0799607
16	0x3b85d603	0.00408435
17	0x3dc2114d	0.09475956
18	0xbe0a92b5	-0.13532527
19	0xbe19bfc3	-0.15014558
20	0x3d388b66	0.045054816
21	0x3c62adc5	0.013835375
22	0xbdf6a852	-0.12043823
23	0xbd49268d	-0.04910903
24	0x3d9cc8f9	0.0765552
25	0xbd23fac8	-0.040034086
26	0xbc52c133	-0.012863445
27	0x3db528c0	0.08845663
28	0xbd64f34b	-0.055896085
29	0xbdc2a7df	-0.09504675
30	0x3df51c92	0.1196834
31	0xbdf6aec9	-0.120450564
32	0xbe1a2ddc	-0.15056556
33	0x3d9f5b77	0.077811174
34	0x3e20f57b	0.15718643
35	0xbdc87650	-0.09788191
36	0x3db3bf5c	0.08776733
37	0x3e217521	0.15767337
38	0x3da9ed24	0.08297184
39	0x3d1dbeae	0.038511924
40	0xbca8916e	-0.020577159
41	0x3e06602d	0.13122626
42	0xbdd83a4e	-0.10557996
43	0x3e06fb59	0.13181819
44	0xbc22795c	-0.00991663
45	0x3a7d4248	0.0009661061
46	0xbd4e41a8	-0.050355583
47	0xbcb2b539	-0.02181493
48	0xbd9306a5	-0.07179002
49	0x3da83ac3	0.08214333
50	0x3df3f56f	0.11912047
51	0x3da68b0b	0.08131989
52	0x3e0b56f2	0.13607386
53	0x3df46db5	0.119349875
54	0xbcd84f65	-0.026405046
55	0x3cef80e3	0.029236263
56	0x3d230e2a	0.03980843
57	0x3dd3d96d	0.10344205
58	0x3dc6d169	0.097079106
59	0xbe193eef	-0.14965414
60	0x3d731c3c	0.0593531
61	0x3c191996	0.009344479
62	0x3dff34c6	0.124612376
63	0x3d9eb5fb	0.07749554
64	0x3ca4b7f2	0.020107243
65	0x3d924534	0.07142106
66	0x3d55c0a5	0.052185673
67	0xbd97111b	-0.073763095
68	0xbdad4563	-0.084605
69	0x3e1686f1	0.14699914
70	0xbe11ce9b	-0.1423897
71	0x3df541db	0.119754516
72	0xbde50811	-0.11183179
73	0x3dd03d45	0.10167936
74	0x3e0c97e6	0.1372982
75	0xbd049de0	-0.032377124
76	0x3e181f47	0.14855681
77	0xbdffbfc9	-0.12487752
78	0xbc374c68	-0.01118765
79	0xbb3f4048	-0.0029182602
80	0xbd5011a4	-0.050798073
81	0x3ad23cb3	0.0016039818
82	0x3dc076e2	0.09397675
83	0xbbe3593f	-0.006938129
84	0xbd69c652	-0.0570739
85	0x3e1a712c	0.15082234
86	0x3e1e18fd	0.1543922
87	0x3bd4c062	0.0064926604
88	0xbd3c7edb	-0.046019416
89	0xbd2a275e	-0.04154145
90	0x3d0fbecb	0.035094064
91	0xbd874d68	-0.06606561
92	0x3e0ec7ba	0.13943377
93	0x3e21e527	0.15810071
94	0x3e150266	0.14551696
95	0xbd4fdc24	-0.05074705
96	0xbb57e64a	-0.003294366
97	0x3d49f52f	0.04930609
98	0xbd6ec577	-0.058293786
99	0xbe0fa040	-0.14025974
100	0x3d91a940	0.0711236
101	0xbe0661b2	-0.13123205
102	0xbd111f45	-0.03543021
103	0x3dd293df	0.102821104
104	0x3e207b87	0.15672122
105	0x3e1af616	0.15132937
106	0x3dc61ca3	0.09673431
107	0xbe0f093f	-0.13968371
108	0x3d19d15a	0.03755317
109	0xbd2237f0	-0.039604127
110	0xbd84eb7e	-0.06490229
111	0x3d035dcc	0.032071874
112	0xbe00d7b9	-0.12582292
113	0x3cc3538e	0.023843553
114	0x3d9efca6	0.077630326
115	0xbca2a83d	-0.019855613
116	0xbde002ca	-0.10938032
117	0x3dc72383	0.0972357
118	0x3d9a698c	0.07539663
119	0x3d1cf877	0.038322892
120	0xbe0c3f36	-0.13695988
121	0xbd636479	-0.05551574
122	0x3d28322f	0.041063484
123	0xbe069492	-0.13142613
124	0x3dcb74ae	0.09934364
125	0xbddf717b	-0.109103166
126	0xbe192171	-0.14954163
127	0x3c49a3c1	0.012307108
128	0xbd49f715	-0.0493079
129	0xbd80c495	-0.06287495
130	0x3c538a8f	0.012911453
131	0x3daa1bf9	0.083061166
132	0xbd0aaa30	-0.03385371
133	0xbe20e945	-0.15713985
134	0x3ccba0ec	0.024857007
135	0x3d99c4fe	0.075082764
136	0xbd82ad48	-0.06380707
137	0xbe14d98d	-0.14536114
138	0x3e136286	0.14393052
139	0x3e0f5ca7	0.14000188
140	0xbcf7a4e8	-0.03023
141	0x3e0d9a8d	0.13828488
142	0x3e157c7c	0.14598268
143	0x3d6e3d95	0.058164198
144	0xbe088258	-0.13330972
145	0x3d7ddb28	0.06197658
146	0xbe012ef0	-0.12615561
147	0x3d1552d6	0.03645595
148	0x3d7780f5	0.060425717
149	0xbd2609a8	-0.040536553
150	0x3dce005e	0.10058664
151	0x3dcead5d	0.1009166
152	0x3dd53f4f	0.10412466
153	0xbd6f9fff	-0.058502194
154	0x3b87a299	0.004139256
155	0x3dede5e4	0.11616114
156	0xbb1bacec	-0.0023754193
157	0x3d67d888	0.056602985
158	0x3dacb430	0.084328055
159	0xbe211659	-0.15731181
160	0xbdfd163f	-0.12357759
161	0x3d542c68	0.05180016
162	0xbdef612f	-0.11688458
163	0xbe0b4881	-0.13601877
164	0xbd2359d7	-0.0398806
165	0x3da4158b	0.080119215
166	0x3c1551d9	0.009113752
167	0x3db40264	0.087895185
168	0x3cdd6dce	0.027029898
169	0x3e14e5d8	0.14540803
170	0xbdb2ef01	-0.087369926
171	0x3e1af1cc	0.151313
172	0x3c385f49	0.0112531865
173	0x3ddd7377	0.10813039
174	0x3d32c3d9	0.043643806
175	0xbd472c72	-0.04862637
176	0xbd8b6fe1	-0.068084486
177	0x3c905394	0.017617978
178	0xbe0606f7	-0.13088594
179	0xbde2b83f	-0.110702984
180	0xbd2e0f57	-0.042495098
181	0x3e075bf0	0.13218665
182	0xbdae5631	-0.085125335
183	0xbc57339f	-0.013134866
184	0x3de53a03	0.111927055
185	0x3d1d61bb	0.03842328
186	0x3e1072e6	0.1410633
187	0xbd32d136	-0.04365655
188	0xbceb258d	-0.028704429
189	0x3ce5f25a	0.028069664
190	0x3bd288e9	0.0064250124
191	0x3e168768	0.14700091
192	0xbe1e0fe1	-0.15435745
193	0xbd5470a7	-0.051865246
194	0xbcf5885b	-0.029972246
195	0xbdf8a81b	-0.121414386
196	0xbe21776a	-0.15768209
197	0xbcbd7930	-0.023129076
198	0x3d5a5b7c	0.053309903
199	0x3dacec54	0.084435135
200	0x3e048193	0.12940054
201	0xbc9f01d3	-0.01941005
202	0xbe137555	-0.14400227
203	0x3d4ff871	0.05077404
204	0xbdf38612	-0.11890806
205	0x3de4aa7c	0.1116533
206	0xbdaa7cb8	-0.083245695
207	0x3c5f2f2a	0.013622085
208	0x3d989d89	0.074519224
209	0xbdd146da	-0.10218592
210	0xbd624283	-0.05523921
211	0x3e09e2dd	0.13465448
212	0xbe0fe85e	-0.14053485
213	0xbc8ece25	-0.017432282
214	0xbd25eee5	-0.04051103
215	0x3ba044a8	0.004890997
216	0x3d0418bf	0.032250162
217	0x3d0173fa	0.031604744
218	0xbe0f8beb	-0.14018218
219	0xbd986261	-0.07440639
220	0x3e11012f	0.14160608
221	0xbc67d88d	-0.014150751
222	0x3cd9d7d5	0.026592175
223	0x3df396df	0.11894011
224	0xbcd27a17	-0.025692983
225	0xbe024ec1	-0.12725355
226	0x3d9bfd15	0.07616631
227	0x3c65a976	0.014017453
228	0x3c88c504	0.016695507
229	0x3c66f4a1	0.01409641
230	0x3da754c4	0.08170465
231	0xbe0a2122	-0.13489202
232	0x3d9b4dd3	0.07583203
233	0xbdfd298e	-0.123614416
234	0x3e155072	0.14581469
235	0x3d183a82	0.037165172
236	0x3d73dc85	0.059536476
237	0x3da2c317	0.07947367
238	0xbd757ec5	-0.05993535
239	0xbdf4d1e7	-0.11954098
240	0x3d26969d	0.04067098
241	0x3d8af7e1	0.067855604
242	0x3d4dcf99	0.05024681
243	0xbe1a2497	-0.1505302
244	0xbd2a5163	-0.041581523
245	0x3da0f804	0.07859805
246	0x3e0ff729	0.14059128
247	0x3dc548ea	0.09633048
248	0x3dc38bd3	0.09548154
249	0xbcf664f7	-0.03007744
250	0xbdb02910	-0.08601582
251	0x3d000416	0.031253897
252	0xbd650f52	-0.055922814
253	0xbc3759ed	-0.011190874
254	0xbdccb266	-0.09994964
255	0xbdc4f504	-0.096170455

blocks.0.1.fn.1.3.bias f4 [10]
0	0xbe106f97	-0.14105068
1	0xbd02333d	-0.031787146
2	0x3e121f37	0.1426972
3	0xbdb4a674	-0.08820811
4	0xbc0696fe	-0.00821471
5	0xbbf8e6ca	-0.0075958716
6	0xbdb57210	-0.08859646
7	0x3d12a99b	0.03580628
8	0x3cb26204	0.021775253
9	0xbc98c55a	-0.018648792

blocks.1.0.fn.0.weight f4 [10]
0	0x3f800000	1.0
1	0x3f800000	1.0
2	0x3f800000	1.0
3	0x3f800000	1.0
4	0x3f800000	1.0
5	0x3f800000	1.0
6	0x3f800000	1.0
7	0x3f800000	1.0
8	0x3f800000	1.0
9	0x3f800000	1.0

blocks.1.0.fn.0.bias f4 [10]
0	0x00000000	0.0
1	0x00000000	0.0
2	0x00000000	0.0
3	0x00000000	0.0
4	0x00000000	0.0
5	0x00000000	0.0
6	0x00000000	0.0
7	0x00000000	0.0
8	0x00000000	0.0
9	0x00000000	0.0

blocks.1.0.fn.1.keys.weight f4 [10, 10]
0	0xbe91f1ef	-0.28504893
1	0xbd5a173d	-0.053244818
2	0xbe839d75	-0.25706068
3	0x3be5a26d	0.007007888
4	0xbda885f2	-0.08228673
5	0x3e3420f2	0.17590693
6	0xbda5fc8d	-0.08104811
7	0xbdfcb4c0	-0.12339163
8	0xbd92347b	-0.07138916
9	0x3e477b51	0.19480635
10	0xbdf020cd	-0.11725006
11	0x3e420e46	0.18950757
12	0x3e8bab2b	0.27279028
13	0x3d5ff529	0.054677162
14	0x3d965444	0.07340291
15	0xbdfc9be8	-0.12334424
16	0xbdec6538	-0.115427434
17	0x3c80a9bb	0.015705934
18	0xbd35f73c	-0.044425234
19	0xbe4206b5	-0.18947871
20	0x3e305900	0.17221451
21	0x3e882b76	0.26595658
22	0xbe97d4a3	-0.29654416
23	0xbd27d296	-0.040972315
24	0x3e1dac75	0.15397818
25	0x3e974ad1	0.29549268
26	0xbe7bf324	-0.2460447
27	0xbe04b0cb	-0.12958066
28	0xbc84ff37	-0.016234977
29	0xbe1c9c76	-0.1529406
30	0xbe2ac5bf	-0.16676997
31	0xbdc305cd	-0.09522591
32	0x3d06889a	0.032845117
33	0xbea04b7d	-0.31307593
34	0xbd01069f	-0.031500455
35	0x3dec6607	0.11542898
36	0x3dac9188	0.084261954
37	0x3d3d444d	0.046207715
38	0x3e901290	0.28139162
39	0x3d076bd0	0.033061802
40	0xbe99c423	-0.30032453
41	0x3d9d4d50	0.07680762
42	0xbe3e012b	-0.18555133
43	0x3e1999a6	0.15000018
44	0xb9ca2b1a	-0.00038560556
45	0x3c2e3104	0.010631803
46	0xbdf2f6d7	-0.11863487
47	0x3e9e550f	0.3092427
48	0xbc5b1192	-0.013370888
49	0xbe9983a1	-0.29983237
50	0xbe07a5a5	-0.13246782
51	0x3e172875	0.14761527
52	0xbe5901e5	-0.21192129
53	0xbe3a6810	-0.18203759
54	0x3e95b44f	0.29239127
55	0xbd66a065	-0.056305308
56	0x3e892ba5	0.2679111
57	0x3d64f87e	0.055901043
58	0x3dda8da5	0.10671548
59	0x3e7cd1d5	0.2468942
60	0x3e0eb5d5	0.13936551
61	0x3c5a3394	0.013317961
62	0x3e68d593	0.22737722
63	0xbe5536dc	-0.20821708
64	0x3e9decf5	0.30844846
65	0x3ddd2702	0.10798456
66	0x3db8117a	0.089877084
67	0x3e311547	0.17293273
68	0x3e2d954e	0.16951486
69	0xbe333a0f	-0.17502616
70	0xbe17dea7	-0.14831029
71	0x3e155ada	0.14585438
72	0xbe9be771	-0.30450013
73	0x3e93e4f8	0.28885627
74	0xbe3a561c	-0.1819691
75	0xbe5792bf	-0.21052073
76	0x3e033b1c	0.12815517
77	0x3e81a482	0.25320822
78	0xbe92dccb	-0.28684077
79	0xbdbebd25	-0.0931342
80	0xbd3dc441	-0.04632974
81	0x3e6a0ebf	0.22857188
82	0xbe99f1ea	-0.30067378
83	0xbd5b1309	-0.05348495
84	0xbd8257b9	-0.06364388
85	0xbc21d45e	-0.009877292
86	0x3e7ac87b	0.2449054
87	0xbe4ddf2c	-0.20104665
88	0xbd38b2cf	-0.0450924
89	0x3c1790fd	0.0092508765
90	0xbdd6a06a	-0.10479815
91	0xbd5dcabc	-0.05414842
92	0x3d0460e7	0.032318976
93	0x3e1e349b	0.15449755
94	0xbe6de0fd	-0.23230357
95	0xbe261975	-0.16220649
96	0xbe8b77e8	-0.2723992
97	0xbd6576f2	-0.05602164
98	0x3e132720	0.14370394
99	0x3e611282	0.21979716

blocks.1.0.fn.1.keys.bias f4 [10]
0	0x3ddf67a6	0.10908441
1	0x3bdbf893	0.006712982
2	0x3e17f97b	0.14841263
3	0xbe2dcf69	-0.16973652
4	0xbe492b73	-0.19645481
5	0xbe437aed	-0.19089861
6	0xbe2a1bb7	-0.16612135
7	0xbe93c0a4	-0.2885791
8	0xbd10df3b	-0.03536914
9	0x3e5b3a21	0.21408893
